models/LSTM/LSTM_best.pt (torch, 20895 bytes, 4 tensors)

weight f4 [30, 150]
000000 a0 e0 45 3f 5f eb 2f 3f 95 7f 1d 3f 92 7b 48 3f
       0.77295876 0.6871852 0.615228 0.78313553
000010 64 0d 45 3f fd 58 49 3f b3 37 42 3f 5f db 29 3f
       0.7697356 0.7865141 0.7586624 0.6635036
000020 c2 2c 2a 3f 96 83 36 3f 25 9e 3b 3f 66 7e 36 3f
       0.66474545 0.71294534 0.73288184 0.7128662
000030 12 bc 34 3f 49 90 37 3f d8 39 41 3f f2 f5 2d 3f
       0.7059947 0.71704537 0.7547889 0.6795341
000040 3b bf 48 3f 91 d8 39 3f 98 bc 26 3f 4b 56 53 3f
       0.78416795 0.7259608 0.6513152 0.8255355
000050 12 72 24 3f 3d 5b 3f 3f 0e 62 3c 3f 9a 0a 2f 3f
       0.6423656 0.74748594 0.7358712 0.6837555
000060 b7 9a 2f 3f 94 9c 3b 3f 94 76 3f 3f 59 2d 2f 3f
       0.6859545 0.73285794 0.7479031 0.6842857
000070 fc df 42 3f fd 50 3e 3f 34 02 1f 3f 63 2b 22 3f
       0.76123023 0.7434233 0.62112737 0.6334745
000080 8d bb 23 3f 88 b9 38 3f f7 dd 2c 3f 39 0e 47 3f
       0.63958055 0.721581 0.6752619 0.7775608
000090 1d 9c 20 3f d1 1d 39 3f b0 20 47 3f fa d2 28 3f
       0.6273821 0.7231112 0.7778425 0.65946925
0000a0 12 9b 43 3f d1 83 43 3f e3 1f 36 3f 1f ec 40 3f
       0.76408494 0.7637301 0.71142405 0.7536029
0000b0 bc 1b 31 3f ed 68 1e 3f c6 29 40 3f 53 3a 3e 3f
       0.69182944 0.61878854 0.7506374 0.74307746
0000c0 b2 33 2e 3f 5d cb 32 3f d0 eb 2c 3f 4d 3f 44 3f
       0.6804763 0.6984156 0.6754732 0.7665909
0000d0 b2 88 26 3f 6d d1 27 3f b8 05 36 3f 56 16 3c 3f
       0.6505233 0.65553933 0.71102476 0.7347158
0000e0 5e 26 41 3f 5b e1 24 3f a7 ef 32 3f f1 07 39 3f
       0.7544917 0.64406365 0.6989693 0.7227774
0000f0 cf 46 35 3f 8a c5 33 3f 8b ca 51 3f 82 db 46 3f
       0.7081117 0.70223296 0.8194968 0.7767869
000100 44 1b 28 3f 40 34 2f 3f 00 83 2c 3f f4 13 2d 3f
       0.65666604 0.684391 0.6738739 0.6760857
000110 a9 f1 4c 3f 41 c6 28 3f 60 60 48 3f e8 d1 38 3f
       0.80056244 0.6592751 0.78272057 0.7219529
000120 c2 74 3a 3f a8 83 40 3f f3 5d 32 3f 6e e5 2a 3f
       0.7283441 0.7520089 0.69674605 0.6675633
000130 ee 98 29 3f ca e8 3f 3f e3 34 2a 3f 68 47 37 3f
       0.6624898 0.7496458 0.6648695 0.7159333
000140 7a 7c 3d 3f 04 76 32 3f 9a 1e 39 3f 9e c6 33 3f
       0.7401806 0.6971133 0.7231232 0.7022494
000150 da 38 45 3f c1 24 2a 3f 7c f5 4b 3f fc 2b 2e 3f
       0.77039874 0.6646233 0.79671454 0.68035865
000160 61 cd 48 3f 5f e2 31 3f 55 6c 25 3f 3d 77 3b 3f
       0.78438383 0.6948604 0.64618427 0.7322882
000170 0c 8f 34 3f 47 38 2a 3f 51 d7 1c 3f e6 a9 25 3f
       0.7053077 0.6649212 0.61266047 0.6471237
000180 46 3a 20 3f be 88 00 3f 35 6a 40 3f 1a 91 55 3f
       0.6258892 0.5020865 0.7516206 0.8342453
000190 f3 79 25 3f 88 a0 33 3f 6c 8d 25 3f a2 7c 2c 3f
       0.64639205 0.70166826 0.6466892 0.67377675
0001a0 8c 9b 42 3f 0c 8c 2e 3f 82 83 33 3f a3 49 2d 3f
       0.76018596 0.68182445 0.7012254 0.67690486
0001b0 37 b4 3f 3f 14 9f 3c 3f 9f 90 44 3f c6 5d 38 3f
       0.7488436 0.73680234 0.76783174 0.72018087
0001c0 30 a4 19 3f 7b 44 20 3f 49 69 35 3f ff f8 42 3f
       0.60016155 0.6260449 0.7086378 0.7616119
0001d0 cc b4 2e 3f 6e 03 2e 3f 75 6f 33 3f 61 01 32 3f
       0.68244624 0.67973983 0.70091945 0.69533354
0001e0 3b 42 64 3f 1c aa 05 3f 52 0b 27 3f 55 64 2b 3f
       0.8916356 0.5221269 0.6525165 0.6694997
0001f0 ac b4 57 3f 3c 52 37 3f 4f cc 1b 3f 51 89 26 3f
       0.8426006 0.71609855 0.60858625 0.6505328
000200 29 d0 30 3f d3 2a 22 3f 1f 8d 37 3f 0b c7 34 3f
       0.6906763 0.63346595 0.7169971 0.70616215
000210 e2 ca 22 3f 9b 3d 25 3f 34 69 3a 3f 0d 3f 20 3f
       0.63590825 0.6454713 0.7281678 0.6259621
000220 37 ac 31 3f b5 26 35 3f d7 29 2f 3f bb ed 3d 3f
       0.69403404 0.7076219 0.6842322 0.7419087
000230 b4 2a 31 3f 1f 4b 3d 3f 34 7d 49 3f b9 70 3e 3f
       0.69205785 0.7394275 0.7870667 0.7439075
000240 5b 64 25 3f 07 f1 46 3f 82 9d 33 3f 4b ef 1e 3f
       0.64606255 0.7771153 0.7016221 0.6208388
000250 7b 96 17 3f af 44 21 3f ea fd 08 bf 86 da 17 bf
       0.5921399 0.6299543 -0.5351244 -0.59317815
000260 f0 01 25 bf 2a 88 12 bf de 42 23 bf c5 24 0c bf
       -0.6445608 -0.5723902 -0.63773906 -0.54743606
000270 d1 12 08 bf 26 aa 18 bf e1 52 29 bf 6d d7 0e bf
       -0.5315371 -0.59634626 -0.6614209 -0.55797464
000280 11 37 04 bf 6e 0b 0a bf fb 85 15 bf 36 4c 1c bf
       -0.51646525 -0.5392369 -0.5840756 -0.6105379
000290 5c 07 28 bf 25 2d 15 bf 16 37 1b bf 34 05 1e bf
       -0.6563623 -0.5827201 -0.6063093 -0.6172669
0002a0 f3 28 07 bf 83 0b 28 bf 42 75 1f bf 53 f7 25 bf
       -0.5279686 -0.65642565 -0.62288296 -0.6483051
0002b0 bc b8 13 bf 36 bc 20 bf 35 55 14 bf 5a 93 09 bf
       -0.5770376 -0.6278719 -0.57942516 -0.53740466
0002c0 fb 5b 0a bf 6e 16 0c bf 12 33 28 bf d2 bc 24 bf
       -0.540466 -0.54721725 -0.6570293 -0.64350617
0002d0 80 d2 1d bf 15 5e 2a bf 1d 7c 23 bf 32 b7 18 bf
       -0.6164932 -0.6654981 -0.63861257 -0.59654534
0002e0 10 b7 09 bf 75 26 20 bf 5d 2c 18 bf 0f 27 1b bf
       -0.53794956 -0.6255868 -0.59442693 -0.60606474
0002f0 9f 4c 23 bf 50 63 18 bf 14 0b 0d bf d7 8e 2d bf
       -0.6378879 -0.5952654 -0.5509503 -0.6779608
000300 63 83 2d bf 81 2d 1e bf b5 4a 20 bf 44 cb 13 bf
       -0.67778605 -0.61788183 -0.62613994 -0.57732034
000310 f4 76 1b bf eb 61 08 bf 0c 4a 28 bf a6 ed 2d bf
       -0.60728383 -0.5327441 -0.65737987 -0.6794075
000320 7f de 1f bf 3e 15 2b bf a7 62 0d bf ae 05 29 bf
       -0.6244888 -0.6682929 -0.55228657 -0.6602429
000330 8d a8 05 bf e4 e3 22 bf f0 6b 2d bf 6a ed 16 bf
       -0.52210313 -0.63628983 -0.67742825 -0.58956015
000340 f5 8e 1f bf b6 e0 22 bf 8a e9 22 bf ad 07 1e bf
       -0.6232751 -0.6362413 -0.636376 -0.6173046
000350 09 0e 18 bf dc 48 13 bf 7b a5 22 bf 3f 3f 11 bf
       -0.59396416 -0.5753305 -0.63533753 -0.5673713
000360 d4 3c 06 bf 89 28 15 bf 2d 57 2a bf 05 ce 10 bf
       -0.52436566 -0.58264977 -0.6653927 -0.5656436
000370 08 d3 0b bf f2 73 1f bf 9a 14 26 bf 52 21 12 bf
       -0.54618883 -0.62286294 -0.64875185 -0.5708209
000380 d6 26 14 bf 00 fb 26 bf 1c 0e 13 bf 11 97 15 bf
       -0.5787176 -0.65226746 -0.57443404 -0.58433634
000390 1f ed 07 bf ab 2f 10 bf 48 9f 22 bf e9 b1 13 bf
       -0.53096193 -0.56322736 -0.63524294 -0.57693344
0003a0 e2 27 05 bf 65 5e 05 bf 51 64 29 bf 1d 97 23 bf
       -0.5201398 -0.5209716 -0.66168696 -0.63902456
0003b0 5d cf 1d bf 41 77 0f bf 4e bc 1b bf da 92 2b bf
       -0.61644536 -0.5604134 -0.60834205 -0.6702095
0003c0 31 56 25 bf b9 c6 0a bf 8b 35 1b bf 76 a4 07 bf
       -0.6458464 -0.54209477 -0.60628575 -0.5298532
0003d0 72 2b 22 bf 4a 21 16 bf 06 45 0b bf 68 04 53 bd
       -0.6334754 -0.58644545 -0.54402196 -0.051517874
0003e0 81 aa 2d bf ea a6 0c bf 71 57 08 bf c5 f7 1f bf
       -0.67838293 -0.5494219 -0.53258425 -0.6248744
0003f0 87 12 1c bf 27 0e 27 bf 41 60 08 bf d7 e8 12 bf
       -0.6096577 -0.6525597 -0.5327187 -0.57386535

bias f4 [30]
000000 20 a2 1e 3f 96 01 08 bf 7a 67 15 bf 53 96 cd 3d
       0.61966133 -0.5312742 -0.5836102 0.10038438
000010 52 5f 03 bf e9 a0 14 bf b4 02 8b be ce 06 12 bf
       -0.5131732 -0.5805803 -0.271505 -0.57041633
000020 1e 87 21 bf 79 e6 06 bf d4 f2 bb 3d 89 3e 54 3f
       -0.630968 -0.52695423 0.09177175 0.8290792
000030 ec 2d 62 3f b0 32 96 3f ac b5 c9 be 55 0c a2 be
       0.8835132 1.1734219 -0.39396417 -0.31650034
000040 63 95 a2 3d f0 2b 20 bf f2 63 33 3f d9 7b ed 3e
       0.079386495 -0.62567043 0.7007438 0.4638355
000050 09 a1 99 3e f1 4f 21 bf c0 3d fa bb 96 17 0a bf
       0.30005673 -0.63012606 -0.0076367557 -0.5394224
000060 ee b0 12 bf f4 54 ac be 60 73 0b bf 17 b7 d1 3b
       -0.57301223 -0.33658564 -0.54472923 0.0064
000070 eb 67 0e bf 2a e0 0b 3f
       -0.55627316 0.5463892

weight f4 [4, 30]
000000 04 0b 5e bf 6e 34 18 bf 8d 49 d9 be 57 df 9c bf
       -0.8673556 -0.59455 -0.42438927 -1.2255658
000010 3c 12 2b bf f2 7e 08 bf e8 c0 3f bf bf 99 e9 be
       -0.668247 -0.53318703 -0.74903727 -0.4562511
000020 e4 2f 14 bf 05 84 2c bf ac e1 7c bf 89 87 7c bf
       -0.57885575 -0.67388946 -0.9878185 -0.9864431
000030 a0 db 65 bf 5f 22 60 c0 a4 93 16 bf 84 95 21 bf
       -0.89788246 -3.5020978 -0.5881903 -0.6311877
000040 67 dd 8f bf 0d 7f fc be 46 92 52 bf 85 1d 47 bf
       -1.1239442 -0.49315682 -0.82254446 -0.7777942
000050 fc 6b 74 bf ed 22 e9 be 2f 11 80 bf ae 02 da be
       -0.9547727 -0.4553446 -1.0005244 -0.4258017
000060 b4 e6 41 bf 80 9b 59 bf 01 ee 22 bf c9 30 33 bf
       -0.7574265 -0.850029 -0.63644415 -0.69996315
000070 a5 0a 07 bf 0d 4a 36 bf 3c 2f 63 bf 74 86 ea be
       -0.5275062 -0.7120674 -0.8874395 -0.45805705
000080 8a dd 05 bf 96 58 e3 3d 44 95 5e bf 58 fe 09 bf
       -0.52291167 0.11100881 -0.8694651 -0.5390372
000090 22 da 12 bf e2 b6 fe be aa 41 34 bf 7f 7e 0f bf
       -0.57364094 -0.49748904 -0.70412695 -0.5605239
0000a0 40 98 46 bf 40 30 44 bf 3d 72 6a bf 88 ba 1d c0
       -0.77576065 -0.76636124 -0.91580564 -2.46451
0000b0 7b c4 18 bf 1a de 36 bf 3a 5b e7 bd a1 2f 1e bf
       -0.59674805 -0.7143265 -0.11296697 -0.61791426
0000c0 d0 98 6a bf 86 e5 75 bf d7 02 4a bf 46 cd 24 bf
       -0.91639423 -0.9605335 -0.78910583 -0.6437572
0000d0 b1 2d 84 bf c4 ea 09 bf b3 05 dc be 8f 90 34 bf
       -1.0326444 -0.5387385 -0.42973098 -0.7053308
0000e0 4b bc ff be b4 51 1d bf 6a fb 05 bf 73 62 60 bf
       -0.49948344 -0.61452794 -0.5233675 -0.8765022
0000f0 ec 54 5d 3f 40 eb f6 3e f8 87 f3 3e d3 b2 d2 3e
       0.86457705 0.48226357 0.47564673 0.41152057
000100 65 e8 3d 3f b0 43 12 3f 4c 09 61 3f 60 43 10 3f
       0.7418273 0.5713453 0.8790481 0.56352806
000110 8d 64 03 3f 4a 06 0c 3f e8 86 5e 3f 8b e5 67 3f
       0.51325303 0.54697096 0.869246 0.9058463
000120 94 fe 73 3f 38 24 45 40 0b 7f 68 3f 45 d7 03 3f
       0.9531033 3.0803356 0.9081885 0.5150035
000130 d0 6e 19 3f 44 60 e3 3e 1a 88 64 3f 57 0e 5b 3f
       0.5993471 0.44409382 0.89270175 0.85568756
000140 88 78 68 3f b5 97 1a 3f 51 78 77 3f 33 1f ed 3e
       0.90808916 0.60387737 0.96667963 0.46312866
000150 ba 3c dd 3e 4e e3 69 3f 0b d9 da 3e 99 0b 5e 3f
       0.43210393 0.91362464 0.42743716 0.86736447
000160 d7 c2 1f 3f 74 50 5f 3f d0 28 7b bf be 40 17 bf
       0.62406677 0.87232137 -0.9810915 -0.59083164
000170 a2 4a 43 bf fe 50 80 bf f1 a6 52 bf 11 a7 dd be
       -0.76285756 -1.0024717 -0.8228598 -0.43291524
000180 f7 a9 13 bf 4c 26 12 bf c7 cc 08 bf 3b fa 0d bf
       -0.5768122 -0.57089686 -0.53437465 -0.55459946
000190 de 1f 74 bf 83 be 83 bf 1d ef 1f bf cf c0 54 c0
       -0.95361125 -1.0292515 -0.6247423 -3.324268
0001a0 4c ab 21 bf 61 f8 1a bf f3 74 9a bf 5d a5 11 bf
       -0.63152003 -0.60535246 -1.206694 -0.5689295
0001b0 4a 98 72 bf 00 41 35 bf 7f 7c 2a bf d6 88 f1 be
       -0.94763625 -0.7080231 -0.66596216 -0.4717471
0001c0 d0 6c 63 bf b8 b4 3a bf 30 02 40 bf ef 18 29 bf
       -0.8883791 -0.72932005 -0.7500334 -0.6605367
0001d0 40 ac 03 bf 43 c5 4b bf 2d f2 d5 be e8 bd 30 bf
       -0.5143471 -0.7959787 -0.41786328 -0.69039774

bias f4 [4]
000000 15 e7 38 c0 6c 6f 22 c0 c3 32 44 40 16 61 2a c0
       -2.8891041 -2.5380507 3.0655982 -2.6621757
